…
Separation power of Weighted depth slice 13 histogram: 0.0004049701139511709
Separation power of Weighted depth slice 14 histogram: 0.00036661966160417796
Separation power of Weighted depth slice 15 histogram: 0.00029759331887130834
Separation power of voxel distribution histogram: 0.0019442125496828106
Plotting histograms: DONE. 

at classification branch
in classification branch
Calculating high-level features for classifier for input {input_name}...
Using 0.01515 as cut for the showers ...
Calculating high-level features for classifer: DONE.

119998 39998 40002
Using cuda:0
DNN(
  (inputlayer): Linear(in_features=6481, out_features=512, bias=True)
  (outputlayer): Linear(in_features=512, out_features=1, bias=True)
  (layers): Sequential(
    (0): Linear(in_features=6481, out_features=512, bias=True)
    (1): LeakyReLU(negative_slope=0.01)
    (2): Dropout(p=0.0, inplace=False)
    (3): Linear(in_features=512, out_features=512, bias=True)
    (4): LeakyReLU(negative_slope=0.01)
    (5): Dropout(p=0.0, inplace=False)
    (6): Linear(in_features=512, out_features=512, bias=True)
    (7): LeakyReLU(negative_slope=0.01)
    (8): Dropout(p=0.0, inplace=False)
    (9): Linear(in_features=512, out_features=1, bias=True)
  )
)
all has 3844609 parameters
Epoch   1 / 50, step    0 / 120; loss 0.6929
Epoch   1 / 50, step   60 / 120; loss 0.6931
Accuracy on training set is 0.4996833280554676
Accuracy on test set is 0.5
AUC on test set is 0.5030203082732766
BCE loss of test set is 0.6932, JSD of the two dists is -0.0000
Epoch   2 / 50, step    0 / 120; loss 0.6934
Epoch   2 / 50, step   60 / 120; loss 0.6932
…
Now looking at independent dataset:
Accuracy on test set is 0.5603719814009299
AUC on test set is 0.5649449578418535
BCE loss of test set is 1.5180, JSD of the two dists is -1.1900
unrescaled calibration curve: [… Rescaled accuracy is 0.5584720763961802
rescaled AUC of dataset is 0.5682289281866091
rescaled calibration curve: [0.44092539 0.55746584 0.6625    ] [0.44299891 0.55554269 0.69645349]
rescaled BCE loss of test set is 0.6852, rescaled JSD of the two dists is 0.0115
Final result of classifier test cls-low for samples.hdf5 (AUC / JSD):
0.5682 / 0.0115
119998 39998 40002
Using cuda:0
DNN(
  (inputlayer): Linear(in_features=226, out_features=512, bias=True)
  (outputlayer): Linear(in_features=512, out_features=1, bias=True)
  (layers): Sequential(
    (0): Linear(in_features=226, out_features=512, bias=True)
    (1): LeakyReLU(negative_slope=0.01)
    (2): Dropout(p=0.0, inplace=False)
    (3): Linear(in_features=512, out_features=512, bias=True)
    (4): LeakyReLU(negative_slope=0.01)
    (5): Dropout(p=0.0, inplace=False)
    (6): Linear(in_features=512, out_features=512, bias=True)
    (7): LeakyReLU(negative_slope=0.01)
    (8): Dropout(p=0.0, inplace=False)
    (9): Linear(in_features=512, out_features=1, bias=True)
  )
)
all has 642049 parameters
Epoch   1 / 50, step    0 / 120; loss 0.6957
Epoch   1 / 50, step   60 / 120; loss 0.6940
Accuracy on training set is 0.5039000650010833
Accuracy on test set is 0.5007500375018751
AUC on test set is 0.508401486377634
BCE loss of test set is 0.6934, JSD of the two dists is -0.0004
Epoch   2 / 50, step    0 / 120; loss 0.6917
…
