…
Separation power of Weighted depth slice 13 histogram: 0.00031065444263595984
Separation power of Weighted depth slice 14 histogram: 0.00025939908228012336
Separation power of Weighted depth slice 15 histogram: 0.00037064935611319847
Separation power of voxel distribution histogram: 0.0024599246299324756
Plotting histograms: DONE. 

at classification branch
in classification branch
Calculating high-level features for classifier for input {input_name}...
Using 0.01515 as cut for the showers ...
Calculating high-level features for classifer: DONE.

119998 39998 40002
Using cuda:0
DNN(
  (inputlayer): Linear(in_features=6481, out_features=512, bias=True)
  (outputlayer): Linear(in_features=512, out_features=1, bias=True)
  (layers): Sequential(
    (0): Linear(in_features=6481, out_features=512, bias=True)
    (1): LeakyReLU(negative_slope=0.01)
    (2): Dropout(p=0.0, inplace=False)
    (3): Linear(in_features=512, out_features=512, bias=True)
    (4): LeakyReLU(negative_slope=0.01)
    (5): Dropout(p=0.0, inplace=False)
    (6): Linear(in_features=512, out_features=512, bias=True)
    (7): LeakyReLU(negative_slope=0.01)
    (8): Dropout(p=0.0, inplace=False)
    (9): Linear(in_features=512, out_features=1, bias=True)
  )
)
all has 3844609 parameters
Epoch   1 / 50, step    0 / 120; loss 0.6933
Epoch   1 / 50, step   60 / 120; loss 0.6932
Accuracy on training set is 0.49937498958315973
Accuracy on test set is 0.5333516675833792
AUC on test set is 0.5492480959364734
BCE loss of test set is 0.6931, JSD of the two dists is 0.0001
Epoch   2 / 50, step    0 / 120; loss 0.6930
…
BCE loss of test set is 1.2539, JSD of the two dists is -0.8090
classifier loaded successfully
Now looking at independent dataset:
Accuracy on test set is 0.7290385480725964
AUC on test set is 0.811078162656039
BCE loss of test set is 0.6098, JSD of the two dists is 0.1202
unrescaled calibration curve: [… Rescaled accuracy is 0.7309634518274086
rescaled AUC of dataset is 0.8109238755851318
rescaled calibration curve: [… rescaled BCE loss of test set is 0.5305, rescaled JSD of the two dists is 0.2347
Final result of classifier test cls-low for samples.hdf5 (AUC / JSD):
0.8109 / 0.2347
119998 39998 40002
Using cuda:0
DNN(
  (inputlayer): Linear(in_features=226, out_features=512, bias=True)
  (outputlayer): Linear(in_features=512, out_features=1, bias=True)
  (layers): Sequential(
    (0): Linear(in_features=226, out_features=512, bias=True)
    (1): LeakyReLU(negative_slope=0.01)
    (2): Dropout(p=0.0, inplace=False)
    (3): Linear(in_features=512, out_features=512, bias=True)
    (4): LeakyReLU(negative_slope=0.01)
    (5): Dropout(p=0.0, inplace=False)
    (6): Linear(in_features=512, out_features=512, bias=True)
    (7): LeakyReLU(negative_slope=0.01)
    (8): Dropout(p=0.0, inplace=False)
    (9): Linear(in_features=512, out_features=1, bias=True)
  )
)
all has 642049 parameters
Epoch   1 / 50, step    0 / 120; loss 0.6933
Epoch   1 / 50, step   60 / 120; loss 0.6952
Accuracy on training set is 0.5087001450024167
Accuracy on test set is 0.5137256862843143
AUC on test set is 0.5292634675235937
BCE loss of test set is 0.6921, JSD of the two dists is 0.0015
Epoch   2 / 50, step    0 / 120; loss 0.6923
…
